{"modelTopology":{"class_name":"Sequential","config":{"name":"sequential_1","layers":[{"class_name":"GRU","config":{"name":"gru_GRU1","trainable":true,"batch_input_shape":[null,96,13],"dtype":"float32","units":64,"activation":"tanh","recurrent_activation":"hard_sigmoid","use_bias":true,"kernel_initializer":{"class_name":"VarianceScaling","config":{"scale":1,"mode":"fan_avg","distribution":"normal","seed":null}},"recurrent_initializer":{"class_name":"Orthogonal","config":{"gain":1,"seed":null}},"bias_initializer":{"class_name":"Zeros","config":{}},"kernel_regularizer":null,"recurrent_regularizer":null,"bias_regularizer":null,"activity_regularizer":null,"kernel_constraint":null,"recurrent_constraint":null,"bias_constraint":null,"dropout":0,"recurrent_dropout":0,"implementation":null,"reset_after":false,"return_sequences":false,"return_state":false,"go_backwards":false,"stateful":false,"unroll":false}},{"class_name":"Dense","config":{"units":13,"activation":"linear","use_bias":true,"kernel_initializer":{"class_name":"VarianceScaling","config":{"scale":1,"mode":"fan_avg","distribution":"normal","seed":null}},"bias_initializer":{"class_name":"Zeros","config":{}},"kernel_regularizer":null,"bias_regularizer":null,"activity_regularizer":null,"kernel_constraint":null,"bias_constraint":null,"name":"dense_Dense1","trainable":true}}]},"keras_version":"tfjs-layers 4.22.0","backend":"tensor_flow.js"},"weightsManifest":[{"paths":["weights.bin"],"weights":[{"name":"gru_GRU1/kernel","shape":[13,192],"dtype":"float32"},{"name":"gru_GRU1/recurrent_kernel","shape":[64,192],"dtype":"float32"},{"name":"gru_GRU1/bias","shape":[192],"dtype":"float32"},{"name":"dense_Dense1/kernel","shape":[64,13],"dtype":"float32"},{"name":"dense_Dense1/bias","shape":[13],"dtype":"float32"}]}],"format":"layers-model","generatedBy":"TensorFlow.js tfjs-layers v4.22.0","convertedBy":null}